…
	seed=2022
	weight_decay=0.0
	tensorboard_path=None
[2023-08-25 10:50:35] INFO Tensorboard log saved in ./tensorboard/AutoInt/ml-1m/2023-08-25-10-50-28-803373.
[2023-08-25 10:50:35] WARNING If you want to use all fields, the float fields might need a scaler. This can be set in dataset.yaml
[2023-08-25 10:50:35] WARNING No retriever is used, topk metrics is not supported.
[2023-08-25 10:50:35] INFO save_dir:./saved/
[2023-08-25 10:50:35] INFO AutoInt(
  (loss_fn): BCEWithLogitLoss()
  (embedding): Embeddings(
    num_features=9, embed_dim=10, reduction=mean
    (embeddings): ModuleDict(
      (MovieID): Embedding(3417, 10, padding_idx=0)
      (UserID): Embedding(6041, 10, padding_idx=0)
      (Title): Embedding(4702, 10, padding_idx=0)
      (Occupation): Embedding(22, 10, padding_idx=0)
      (Zip-code): Embedding(3440, 10, padding_idx=0)
      (Timestamp): DenseEmbedding(
        embedding_dim=10, bias=False, batch_norm=True
        (batch_norm_layer): BatchNorm1d(1, eps=1e-05, momentum=0.1, affine=True, track_running_stats=True)
        (weight): Linear(in_features=1, out_features=10, bias=False)
      )
      (Age): Embedding(8, 10, padding_idx=0)
      (Gender): Embedding(3, 10, padding_idx=0)
      (Genres): Embedding(19, 10, padding_idx=0)
    )
    (seq_pooling_layer): SeqPoolingLayer(pooling_type=mean, keepdim=False)
  )
  (int): Sequential(
    (0): SelfAttentionInteractingLayer(
      attention_dim=10, n_head=1, dropout=0.5, residual=True, layer_norm=False
      (attn): AttentionLayer(
        (attn_layer): MultiheadAttention(
          (out_proj): NonDynamicallyQuantizableLinear(in_features=10, out_features=10, bias=True)
        )
      )
      (res): Linear(in_features=10, out_features=10, bias=True)
    )
    (1): SelfAttentionInteractingLayer(
      attention_dim=10, n_head=1, dropout=0.5, residual=True, layer_norm=False
      (attn): AttentionLayer(
        (attn_layer): MultiheadAttention(
          (out_proj): NonDynamicallyQuantizableLinear(in_features=10, out_features=10, bias=True)
        )
      )
      (res): Linear(in_features=10, out_features=10, bias=True)
    )
  )
  (fc): Linear(in_features=90, out_features=1, bias=True)
)
[2023-08-25 10:51:25] INFO Training: Epoch=  0 [logloss=0.3406 auc=0.8250 train_loss_0=0.3688]
[2023-08-25 10:51:25] INFO Train time: 42.07461s. Valid time: 5.94997s. GPU RAM: 0.03/39.39 GB
[2023-08-25 10:51:25] INFO auc improved. Best value: 0.8250
[2023-08-25 10:51:25] INFO Best model checkpoint saved in ./saved/AutoInt/ml-1m/2023-08-25-10-50-28-803373.ckpt.
…
