…
	seed=2022
	weight_decay=0.0
	tensorboard_path=None
[2023-08-25 11:48:27] INFO Tensorboard log saved in ./tensorboard/AutoInt/ml-1m/2023-08-25-11-48-21-108541.
[2023-08-25 11:48:27] WARNING If you want to use all fields, the float fields might need a scaler. This can be set in dataset.yaml
[2023-08-25 11:48:27] WARNING No retriever is used, topk metrics is not supported.
[2023-08-25 11:48:27] INFO save_dir:./saved/
[2023-08-25 11:48:27] INFO AutoInt(
  (loss_fn): BCEWithLogitLoss()
  (embedding): Embeddings(
    num_features=9, embed_dim=10, reduction=mean
    (embeddings): ModuleDict(
      (Gender): Embedding(3, 10, padding_idx=0)
      (Occupation): Embedding(22, 10, padding_idx=0)
      (Age): Embedding(8, 10, padding_idx=0)
      (UserID): Embedding(6041, 10, padding_idx=0)
      (Timestamp): DenseEmbedding(
        embedding_dim=10, bias=False, batch_norm=True
        (batch_norm_layer): BatchNorm1d(1, eps=1e-05, momentum=0.1, affine=True, track_running_stats=True)
        (weight): Linear(in_features=1, out_features=10, bias=False)
      )
      (Zip-code): Embedding(3440, 10, padding_idx=0)
      (Title): Embedding(4702, 10, padding_idx=0)
      (Genres): Embedding(19, 10, padding_idx=0)
      (MovieID): Embedding(3417, 10, padding_idx=0)
    )
    (seq_pooling_layer): SeqPoolingLayer(pooling_type=mean, keepdim=False)
  )
  (int): Sequential(
    (0): SelfAttentionInteractingLayer(
      attention_dim=10, n_head=5, dropout=0.5, residual=True, layer_norm=False
      (attn): AttentionLayer(
        (attn_layer): MultiheadAttention(
          (out_proj): NonDynamicallyQuantizableLinear(in_features=10, out_features=10, bias=True)
        )
      )
      (res): Linear(in_features=10, out_features=10, bias=True)
    )
    (1): SelfAttentionInteractingLayer(
      attention_dim=10, n_head=5, dropout=0.5, residual=True, layer_norm=False
      (attn): AttentionLayer(
        (attn_layer): MultiheadAttention(
          (out_proj): NonDynamicallyQuantizableLinear(in_features=10, out_features=10, bias=True)
        )
      )
      (res): Linear(in_features=10, out_features=10, bias=True)
    )
    (2): SelfAttentionInteractingLayer(
      attention_dim=10, n_head=5, dropout=0.5, residual=True, layer_norm=False
      (attn): AttentionLayer(
        (attn_layer): MultiheadAttention(
          (out_proj): NonDynamicallyQuantizableLinear(in_features=10, out_features=10, bias=True)
        )
      )
      (res): Linear(in_features=10, out_features=10, bias=True)
    )
  )
  (fc): Linear(in_features=90, out_features=1, bias=True)
)
[2023-08-25 11:48:55] INFO Training: Epoch=  0 [logloss=0.3407 auc=0.8258 train_loss_0=0.3657]
[2023-08-25 11:48:55] INFO Train time: 23.70072s. Valid time: 3.87322s. GPU RAM: 0.04/39.39 GB
[2023-08-25 11:48:55] INFO auc improved. Best value: 0.8258
[2023-08-25 11:48:55] INFO Best model checkpoint saved in ./saved/AutoInt/ml-1m/2023-08-25-11-48-21-108541.ckpt.
…
